captum_package/models/titanic_model_lr01.pt (torch_old, 2252 bytes, 6 tensors)

linear1.weight f4 [12, 12]
00000000: 4d2b 90be 08cf 6cc0 be40 abbf 9ec0 843e
00000010: f386 4941 7a14 9cc1 ec78 2f40 c085 e140
00000020: 8333 1ac0 d59d b740 2542 e240 d19b 9cc0
00000030: 2d35 89bf 27cb 85bf 6f40 5cbf 958b 33bf
00000040: 3acb 5fbf e5dd fabd d087 8ebf defd 33bf
00000050: 397c 34bf 1770 76bf d92d 93bf f81f ccbe
00000060: 8b48 d5bf 0cae 6fc1 8406 a640 235d afbf
00000070: 6e0f 6940 2f4a cb40 9ad6 40c1 3a1e 9b40
00000080: 393b 8e40 b7a9 24bf 4bce d6bf 4604 5840
00000090: 9027 33c0 605e 0cc0 244a 43bf c01a 05c0
000000a0: 546d 14bf 3d8b 00bf 6dd3 113f c83d 1abf
000000b0: e2d9 c3bf 1145 363f b631 c63e 0563 03c0
000000c0: a770 c2bf b870 c5c0 02ce 93c0 ca16 53bf
000000d0: 8f7a 90c0 c3b1 a6bf c676 8ebf af3b 19bf
000000e0: be8f 8bc0 30a7 ba3f c532 cbbf d89a a8c0
000000f0: 9922 583f b35f b4be eb82 47c0 5ead 0840
00000100: 83c4 22c0 ec5e de3e 0e73 3abf 4679 d83e
00000110: eb99 383f 143d ac3e 9a21 443f c378 9f3e
00000120: c110 3f3f e327 3abf 73ed 50c0 cdcc f63f
00000130: 1dee 49c0 fafc 063f fea1 ebbe fc89 263f
00000140: 6378 0a3f 1e3a 493f a188 fa3e 365b 5b3e
00000150: f037 d1bf 9673 8bc0 ec14 eb40 2eea 14c0
00000160: 38f6 0dc1 ff83 b440 cae7 82c1 0853 1ac0
00000170: 7bdb b5be 7394 e7c0 c4f7 33c1 7fa5 33bf
00000180: 9791 70c0 b8a9 ebc0 eb6d 0541 023e 73be
00000190: 06f7 2740 653b 7240 403a 0541 df36 e33e
000001a0: 27e3 c93f 47c2 3b40 9fc7 a541 0070 4fc1
000001b0: 0903 48bf 1286 233f aac0 073f 001f b2bf
000001c0: a76c 8a40 c739 57c0 4800 9a3f 7858 0b3e
000001d0: 6cbd 0bbe b7e7 913f 4001 a33f 50e8 09bf
000001e0: 0f2f 3140 e70b 743f 3361 703f d7e9 1140
000001f0: c67c 503e 990c 7a3f 39df 1dbe 489c d03e
00000200: fb0a ce3f d3e1 1a3f ac67 753e b613 e73f
00000210: 8fcb 3fbe fbd9 5c40 394a 5a40 4575 4dc0
00000220: 2b24 e2c0 83e7 4440 c67d 91c1 d603 dbc0
00000230: aa24 b33f 0230 e2c0 2b89 32c1 0761 613f
-0.28158036 -3.7001362 -1.3379133 0.25928205 12.595447 -19.509998 2.7417555 7.047577
-2.409394 5.7380166 7.0705743 -4.8940206 -1.0719353 -1.0452622 -0.8603582 -0.7013486
-0.87419474 -0.12249354 -1.1135197 -0.70309246 -0.7050205 -0.96264786 -1.1498367 -0.3986814
-1.6662763 -14.979992 5.1882954 -1.3700298 3.6415668 6.3528056 -12.052393 4.84744
4.4447293 -0.64321464 -1.6781706 3.3752608 -2.7992897 -2.1932602 -0.76285005 -2.0797577
-0.5797932 -0.5021246 0.56963235 -0.6025052 -1.5300868 0.71199137 0.387098 -2.0529187
-1.5190629 -6.1700096 -4.6188974 -0.8245665 -4.514961 -1.3022999 -1.1129997 -0.59856695
-4.3612967 1.4582272 -1.5874869 -5.268902 0.8442779 -0.35229263 -3.1173656 2.1355815
-2.5432441 0.43431795 -0.7283181 0.42280024 0.7210986 0.3364035 0.7661377 0.3114682
0.7463494 -0.7271711 -3.2644928 1.928125 -3.1551583 0.5272976 -0.46022028 0.650543
0.54089946 0.78604305 0.48932365 0.21421513 -1.6345196 -4.3578596 7.346304 -2.3267932
-8.872612 5.641113 -16.363178 -2.4113178 -0.35519013 -7.2368712 -11.24799 -0.701744
-3.758886 -7.3644676 8.339335 -0.23754123 2.624452 3.7848752 8.326721 0.443778
1.5772446 2.9337327 20.722471 -12.964844 -0.7812963 0.6387645 0.5302836 -1.391571
4.325763 -3.3629014 1.2031336 0.13607967 -0.13646477 1.1398839 1.2734756 -0.53870106
2.7684972 0.9533066 0.93898314 2.2798975 0.20360097 0.9767547 -0.15417184 0.40744233
1.6097101 0.6050083 0.23965329 1.805289 -0.18729995 3.4508045 3.4107802 -3.2102826
-7.066915 3.0766304 -18.186413 -6.8442183 1.3995564 -7.0683603 -11.158488 0.88038677

linear1.bias f4 [12]
00000000: b7ae 283f ecd2 a8bf 1110 6440 9ac8 ddbf
00000010: 99cc 8ec0 1cbb 3c3f 1b29 253f 4199 a9c0
00000020: 62c0 8840 a6ee 4e3e 0909 d73f 5bf3 77c0
0.65891594 -1.3189368 3.5634806 -1.7326844 -4.4624753 0.73723006 0.64515847 -5.2999578
4.273484 0.20208225 1.6799632 -3.8742282

linear2.weight f4 [8, 12]
00000000: 68a8 9640 ec5d 88be 68a8 34c1 f94f e7bf
00000010: 1505 773e 5100 22bf 09bf abbe 0f14 a7c0
00000020: 6da6 0041 30c0 d93f d890 35bf 137c 2ec0
00000030: 13a4 98bf 8a12 07bf 6e49 31bf af0a 23bf
00000040: 6f9c 68bf 39e9 98bf 288a 64bf bc7a 16bf
00000050: 3a98 24bf 0de4 46bf e290 94bf 45e6 2dbf
00000060: 0b19 63c0 b440 d2be 2356 d03d fd35 8a3f
00000070: fd3a 71be 0053 b9be 0ac1 4bbf 995c 5c3e
00000080: e4cb 1bc0 475e 8ebf 5ec3 bfbe a516 06ba
00000090: 1370 9cc0 0d0c d4bd c189 bf40 66bf a13f
000000a0: 46c4 003e b978 85bd bedf 9bbd 7292 cf40
000000b0: e06b fdc0 2654 a9bf 781d 67be 424b 5b40
000000c0: b3c6 a2c0 3428 1ebe 969d 3741 77f4 d83f
000000d0: b194 9f3e df9d 133e 3c4d 9b3e 9382 c740
000000e0: 5d2e e1c0 bf06 b5bf 72ad 86bd 7e46 8a40
000000f0: 460d 95c0 62b9 07be be71 e940 8d82 ba3f
00000100: ffe6 e6bd 1211 f33c 976a c43d 3840 af40
00000110: 42f7 d9c0 f777 89bf ed87 a73d ea01 6440
00000120: 2d2b 9bc0 fb58 c1be 06ec 3941 c495 d53f
00000130: 1826 343e 48bc 953e 5237 a83e e4a3 bb40
00000140: ead5 dac0 e7e6 9cbf ca55 c2bd a649 7a40
00000150: fd2f c9c0 4107 b4be 6a20 5841 b5b2 a23f
00000160: 3a37 0c3f 5429 ee3e 895d 813d 346c 7f40
00000170: 5d1a 13c1 2eae fbbf e982 f63e f0ef 1440
4.7080574 -0.26634157 -11.291115 -1.8071281 0.24123032 -0.6328173 -0.33544186 -5.2211986
8.040631 1.7011776 -0.7092414 -2.726323 -1.1925071 -0.52762663 -0.6925267 -0.63688177
-0.908637 -1.1946174 -0.8927331 -0.5878103 -0.6429478 -0.7769173 -1.1606715 -0.6792949
-3.5484035 -0.4106499 0.10172679 1.0797726 -0.23557658 -0.36196136 -0.7959143 0.21519698
-2.4343195 -1.1122521 -0.3745374 -0.00051150686 -4.888681 -0.10353861 5.9855657 1.2636535
0.12574872 -0.06517167 -0.07611035 6.4866266 -7.9194183 -1.3228805 -0.22569835 3.4264684
-5.0867553 -0.15445024 11.475973 1.6949605 0.3116813 0.14415692 0.30332363 6.234689
-7.0369096 -1.4142684 -0.06576051 4.321105 -4.6578703 -0.13254312 7.2951345 1.4571091
-0.11274528 0.029671226 0.09590643 5.476589 -6.811433 -1.0739735 0.08180223 3.5626168
-4.8490205 -0.377632 11.620123 1.668633 0.17592657 0.2924521 0.32854706 5.863756
-6.8386126 -1.2257966 -0.09489019 3.9107451 -6.287108 -0.35161784 13.507914 1.2710787
0.5477177 0.46515906 0.063166685 3.9909792 -9.193936 -1.966253 0.48146752 2.3271446

linear2.bias f4 [8]
00000000: b356 0fbf fee5 95bf 169d f5be 5479 52be
00000010: 98b9 26be e9aa 3f3d 80e8 98bd a416 e83e
-0.5599167 -1.1710813 -0.4797141 -0.20554096 -0.16281736 0.046793852 -0.07466221 0.45329773

linear3.weight f4 [2, 8]
00000000: 83f0 45c0 83f1 363e 9729 3b3e 5e31 d33f
00000010: d434 e83f 6756 0040 2f1a 0e40 aded 2140
00000020: e9c8 4a40 b754 68be fb5b 27bf e3c7 febf
00000030: e9ec 0ac0 44f5 f6bf 3068 21c0 e0b7 06c0
-3.0928047 0.17865567 0.18277584 1.6499441 1.8141122 2.0052736 2.2203481 2.5301316
3.1685126 -0.22688566 -0.65374726 -1.990475 -2.1707098 -1.9293599 -2.521984 -2.1049728

linear3.bias f4 [2]
00000000: 2526 0bc0 6a02 0340
-2.1742032 2.0470223
