captum_package/models/titanic_model_lr0001.pt (torch_old, 2252 bytes, 6 tensors)

linear1.weight f4 [12, 12]
00000000: bfa4 5fba 5c2f c73d a14e 843c b067 2c3d
00000010: aca6 9ebf f0ba 713f b2b8 c7bf 93ef da3e
00000020: ee72 673e 5086 edbf d83f 6cbe 5b0f b13f
00000030: 895c 12bc e2ab 88bd ff57 44bf 1c51 083c
00000040: e996 8f3f a971 e0bf 7c3d d6be 2330 a73e
00000050: 26c5 20bf 8647 893f 5c2d c83e ba2b cebf
00000060: 7079 33bd 1dac 99be 38b3 183d 413f 9c3b
00000070: 1710 923f a8f8 abbf d54a b9be ef2a 0b3e
00000080: ca99 f3bd 81bf a53f be5d bc3f b3eb 0dc0
00000090: ce44 863d 9cb9 f53f 362d 1cc0 0de9 fdbd
000000a0: b837 88bf 4a26 ac3f d9b3 8bbe 4603 a2bf
000000b0: 9c87 9cbe e95e c9bf 23c0 813f c27e 2fbf
000000c0: 4e95 26bd 76a8 9c3f f5f6 2540 b6df 5fbd
000000d0: 6609 953f 83f6 a9bf a7c2 783f 8acc aa3f
000000e0: 394e 8d3d 7da6 0f40 a117 1bbf b95d 03bf
000000f0: f33f 5fbd cc1a 0abf d1f5 533d be0f ed3b
00000100: 4886 a13f 1e1a abbf fc3b 20be 4432 63be
00000110: 71f6 89be 2c72 4d3f 71a8 e13f 1453 06c0
00000120: 90c6 f2bd 2920 23be b729 1a3f c4bd 0c3e
00000130: 2efe 8ebf 49ad 833f 7781 09c0 905c a2be
00000140: f606 683f ea51 2ec0 7cd2 7f3f 5f06 313c
00000150: d57b 67bc f8aa b13f c632 0640 8e51 1cbe
00000160: 7275 c3be e0cd cd3e 9d3c 09c0 f8ff 843f
00000170: eddb ed3e 430d 3abf 6a90 e4bf 22dc ab3e
00000180: 4d2f 3abd 4af8 9dbe 451c 993d 7129 6b3b
00000190: 98e9 6d3f d6b0 8ebf fb59 3cbd 2df6 3ebe
000001a0: bcbb 243e bb07 b23f a9b6 cf3f 2e12 edbf
000001b0: 2433 7d3d fd9e 2c3f a5d0 bbbd b24e 14bc
000001c0: b3d9 95bf 2d1b 9f3f e0c1 e53d f080 763e
000001d0: f3f3 b8bd 2804 0cbf cf29 0cc0 f1f6 0340
000001e0: 7abf 703d 3167 9bbf 6a53 3ac0 7801 f23b
000001f0: f84f 87bf f08d a73f c5ec a3bf 6181 9ebf
00000200: ee2d 773f 0113 bdbf 58e0 6e3f 9b0d 493c
00000210: d340 8cbe dc50 0dc0 36a0 0ec0 a500 253f
00000220: a36e fd3f dc86 41bf 5b08 4540 501c c4bf
00000230: 3501 fcbf 4b28 8d3f 9f8d f0bf 1fa1 f63f
-0.0008531324 0.0972583 0.016150774 0.04209107 -1.2394614 0.9442587 -1.560324 0.42760906
0.22602436 -1.8556614 -0.2307123 1.3832811 -0.008933195 -0.06673409 -0.7669677 0.008320119
1.1217929 -1.7534686 -0.41843784 0.32653913 -0.62800825 1.0724952 0.39097106 -1.6107094
-0.043816984 -0.30014125 0.03728029 0.0047682826 1.141116 -1.3435259 -0.36189905 0.13590597
-0.11894567 1.2949067 1.4716108 -2.217511 0.06556092 1.9197268 -2.4402595 -0.123979665
-1.0642004 1.3449185 -0.2728565 -1.2657249 -0.30572212 -1.5732089 1.013676 -0.6855279
-0.04066973 1.223891 2.593198 -0.054656707 1.1643493 -1.3278354 0.97172016 1.334367
0.068996854 2.2445366 -0.6058293 -0.51314884 -0.054504346 -0.5394714 0.0517481 0.0072345426
1.2619104 -1.3367345 -0.15647882 -0.22187144 -0.26945832 0.8025234 1.7629529 -2.0988207
-0.11854279 -0.15930237 0.602199 0.13744265 -1.117132 1.0287257 -2.148527 -0.31711245
0.9063562 -2.7237496 0.9993055 0.010804742 -0.014128645 1.38803 2.096849 -0.15265486
-0.3817554 0.40196133 -2.1443245 1.0390615 0.46456853 -0.72676486 -1.7856572 0.33566386
-0.045455266 -0.30853492 0.07476095 0.0035882855 0.9293456 -1.1147716 -0.04598425 -0.18648596
0.1608724 1.3908609 1.6227618 -1.8521173 0.06181635 0.67430097 -0.09170655 -0.009051966
-1.1707062 1.2430168 0.11218619 0.24072623 -0.090309046 -0.5469384 -2.1900518 2.061947
0.058776356 -1.2140867 -2.9113412 0.007385429 -1.057128 1.3090191 -1.2806631 -1.2383233
0.9655446 -1.4771425 0.9331107 0.01227131 -0.27393207 -2.2080603 -2.2285285 0.6445411
1.9799389 -0.75596404 3.078635 -1.532114 -1.9687868 1.1027921 -1.8793219 1.926792

linear1.bias f4 [12]
00000000: e15b 38bf 15cd 48bf ec94 09be ce76 a2bf
00000010: 2e0c d03f 20a0 e3bd 1492 4ebf 8ab4 95bf
00000020: 836f b2be c650 c83e 59a0 afbf 67e7 ea3f
-0.72015196 -0.7843793 -0.13435715 -1.2692506 1.6253717 -0.11114526 -0.8069165 -1.1695721
-0.34850702 0.39124125 -1.3720809 1.8351868

linear2.weight f4 [8, 12]
00000000: 6ddb 0abf 0182 593f 0254 113f 2792 39bf
00000010: 154e 943f c207 473f 0c8b 35bf 3411 4ebf
00000020: 4f2d a23f 9ddc 75bf ff75 d5be af1b 463f
00000030: 1e2b 873f 8ec7 99bf 0f4a 54bf dcad 863f
00000040: 505e bebf b481 acbf 0dfc c63f 9b24 aa3f
00000050: d104 94bf 9fba ad3f 9269 a33f 7e65 dbbf
00000060: 8206 553f 537f 48bf 2f65 6abf 970e f13e
00000070: 979c bcbf 9558 90bf ab88 7e3f 72f7 4f3f
00000080: adc2 a8bf 0f6b 523f 34ce 293f 39f7 78bf
00000090: f5c0 a73f 826c 9abf 49af 7fbf 1eb8 893f
000000a0: 711b c9bf c31b 91bf 5766 a13f f77a b73f
000000b0: 9835 a3bf b1f1 a23f 297d b43f c2a2 cfbf
000000c0: 262f 333f acbb 34bf 1ff2 69bf 8330 2e3f
000000d0: fc00 37bf e51a 33bf 0cbf 833f a91b 773f
000000e0: e103 79bf f76f 083f ea85 df3e ffa0 76bf
000000f0: 3d8b 79bf 9959 343f b950 4f3f 445d 23bf
00000100: 3aa1 9f3f aec7 9d3f a9ef 9fbf b0a3 a0bf
00000110: f579 a93f 5dab 46bf 61df 7abf 3045 903f
00000120: 156f 303f 90e2 10bf bfb6 34bf ef8e 2e3f
00000130: 28ff 7ebf d434 16bf 8faf 083f e8bc f73e
00000140: cedc 87bf 0983 433f 702f ef3e dff5 87bf
00000150: a69a 383f 5120 3cbf eb08 50bf c478 223f
00000160: 8c8b 7cbf 0ea9 72bf 48ca 3d3f 6623 1c3f
00000170: a357 bebf 7954 f23e c1fd 4a3f 26ae 3bbf
-0.5424107 0.84963995 0.5676881 -0.72488636 1.1586329 0.7774621 -0.70915294 -0.80495
1.2670077 -0.96039754 -0.41691586 0.7738599 1.0560033 -1.2014024 -0.82925504 1.0521808
-1.4872532 -1.3477082 1.554567 1.3292421 -1.156397 1.3572577 1.2766593 -1.7140348
0.83213055 -0.7831928 -0.91560644 0.47081444 -1.4735287 -1.1277033 0.9942729 0.81236947
-1.318441 0.8219461 0.66330266 -0.9725223 1.3105761 -1.2064364 -0.9987684 1.0759313
-1.57115 -1.1336597 1.2609357 1.4334401 -1.275073 1.2730008 1.4100696 -1.6221545
0.6999382 -0.70598865 -0.9138507 0.68042773 -0.7148588 -0.6996291 1.0292678 0.9652658
-0.97271544 0.53295845 0.43656856 -0.9633941 -0.97478086 0.70449215 0.8098255 -0.6381419
1.2471077 1.2326562 -1.2495013 -1.2549953 1.3240343 -0.7760523 -0.979971 1.1271114
0.689195 -0.56595707 -0.7059135 0.6818685 -0.9960809 -0.5867436 0.5339288 0.48386312
-1.0614259 0.7637182 0.4671588 -1.0621909 0.72110975 -0.7348681 -0.8126361 0.63465524
-0.9865043 -0.94789207 0.7413678 0.60991514 -1.4870495 0.47330073 0.7929345 -0.73312604

linear2.bias f4 [8]
00000000: 7438 473e dce4 b2be d3d4 9f3d 2d1d c9be
00000010: e4fd 50be 50ab 783e 499d 593c 0330 23bd
0.19455129 -0.3494023 0.07804265 -0.39280072 -0.20409352 0.242841 0.013282129 -0.03984071

linear3.weight f4 [2, 8]
00000000: 5d75 99bf d161 223f 47e3 8a3f 4040 8e3f
00000010: db92 3b3f f702 89bf 6b84 6a3f 3f07 7f3f
00000020: 5b09 8a3f 2f95 90bf b493 3dbf 732e 06bf
00000030: a63d 65bf d824 b73f ab31 58bf 5701 63bf
-1.1988941 0.63430506 1.085061 1.1113358 0.7327096 -1.070403 0.91608304 0.9962043
1.0784105 -1.1295527 -0.740535 -0.52414626 -0.89547193 1.4308119 -0.8445079 -0.8867392

linear3.bias f4 [2]
00000000: 2a4a 15bf da90 283f
-0.5831629 0.65846026
